src/Plugins/Plugin_planeDetection/spd_pytorch/checkpoints/ifind1_sononet_8/300_net_S.pth (torch_old, 673214 bytes, 90 tensors)

conv1.conv1.0.weight f4 [8, 1, 3, 3]
000000 59 0a 3b 3e e6 fe 1c bf 05 54 51 bf f0 f4 20 3f
       0.18265666 -0.61326444 -0.8176883 0.62873745
000010 94 6e 81 bc 32 38 fe be 2f 85 a2 3f d7 0f 94 3f
       -0.015799798 -0.4965225 1.2696894 1.1567334
000020 df e5 ec be 07 ca 69 3e 91 97 52 bf 74 e3 a5 bf
       -0.46269128 0.22830974 -0.8226252 -1.2960038
000030 60 36 3c 3f ad 53 03 bd 4f 43 a8 3e ef a7 0c be
       0.7352047 -0.03206222 0.32863852 -0.13735937
000040 46 cb 82 be 40 34 26 3f 17 20 a6 be 0f f7 60 3f
       -0.2554571 0.6492348 -0.32446358 0.8787698
000050 8a 20 e3 3e f4 21 da be d1 b8 1a 3c 76 f8 19 bf
       0.44360763 -0.4260403 0.009443478 -0.60144746
000060 ee 8a 9f be 9c 6f 01 be 01 6b 9c be 92 1f 2f bf
       -0.31160682 -0.12640232 -0.30550388 -0.6840755
000070 c8 b6 23 3e a6 b8 80 bf b9 1c 04 3f 8a e0 99 be
       0.15987694 -1.005635 0.5160633 -0.30054122
000080 82 fc 4f 3d c6 66 43 bf 08 46 f9 3e 29 e4 e7 3c
       0.05077792 -0.76328695 0.48686242 0.028307037
000090 0d 2d c9 bc 3e 46 02 bf 45 f0 c5 bf da c6 9d 3e
       -0.024557615 -0.5088843 -1.546395 0.30815774
0000a0 1f 9d cc be e7 fe 2c 3e 0b 77 78 3e 4f e6 32 3f
       -0.39963624 0.16894113 0.24264161 0.69882673
0000b0 c1 88 34 3f 68 d0 f5 bc f0 ff f4 3e b9 f4 77 3e
       0.7052117 -0.030006602 0.47851515 0.24214448
0000c0 41 b1 83 3e 1e 11 9f 3e 84 5e 01 bb 6b 7d d4 3d
       0.25721171 0.31067747 -0.0019740174 0.10375484
0000d0 96 51 4a 3f 11 ae 26 3b 01 27 d4 3e 05 0e e4 3f
       0.7903074 0.0025433342 0.41436008 1.7816778
0000e0 50 62 54 be 46 f9 ac 3d 38 8c 31 bf 3b 54 4b bf
       -0.20740628 0.08445983 -0.6935458 -0.794254
0000f0 37 77 dc bd 93 db a5 3e 3a 07 37 bd a2 ee 77 bf
       -0.10764926 0.32394084 -0.044684626 -0.968485
000100 d4 73 86 be 67 86 ca 3e 25 21 71 3d 5a 0f bf 3e
       -0.26260245 0.39555666 0.0588695 0.373164
000110 f1 94 ff bc 7e 76 6d 3f d7 9e 5d be 95 03 ee 3e
       -0.03119895 0.9275893 -0.21642624 0.46487108

conv1.conv1.0.bias f4 [8]
000000 62 15 89 3e 05 e5 fe bd c9 91 6f be e8 bb 88 3d
       0.26774126 -0.12446026 -0.23395456 0.06676465
000010 4a 76 8a be 6f ac d6 bd 26 33 62 be 84 a5 63 be
       -0.27043372 -0.10482108 -0.22089824 -0.22231108

conv1.conv1.1.weight f4 [8]
000000 af 7a 8f 3f db e9 b6 3f 95 ed 83 3f 04 c7 69 3f
       1.1209315 1.4290117 1.0306879 0.913193
000010 d4 82 9a 3f f2 f8 35 3f 30 04 97 3f 20 d6 61 3f
       1.2071176 0.71082985 1.1798153 0.88217354

conv1.conv1.1.bias f4 [8]
000000 6c a9 0c 3f c3 aa 6b 3e ac 1c 27 3d f3 31 93 be
       0.5494602 0.23014359 0.040798828 -0.28749046
000010 82 62 de 3e cb 11 28 be 96 d5 2d 3f d1 45 57 3e
       0.4343453 -0.16413037 0.6790403 0.21022727

conv1.conv1.1.running_mean f4 [8]
000000 3d ba 89 3e 88 09 fe bd cb 23 72 be a7 ec 81 3d
       0.268999 -0.12404162 -0.23646466 0.06343966
000010 32 51 8a be 55 5f d3 bd 38 a7 62 be c6 bf 61 be
       -0.27015072 -0.103209175 -0.22134101 -0.22045812

conv1.conv1.1.running_var f4 [8]
000000 e7 30 a2 3f b4 95 0c 3f 50 62 32 3f ec 20 0c 40
       1.2671174 0.5491593 0.6968126 2.1895094
000010 bc 03 26 3f 85 78 8e 40 1b fe 36 3f 0b f6 2f 3f
       0.6484945 4.452212 0.71481484 0.68734807

conv1.conv2.0.weight f4 [8, 8, 3, 3]
000000 10 73 09 bd dc b1 3b bd 48 a0 0f be c9 19 7d 3d
       -0.033556998 -0.045823917 -0.14025986 0.06179217
000010 bb 68 a3 3e 0c 08 50 3e a0 af d8 3e 09 22 bc 3d
       0.3191584 0.2031557 0.4232149 0.09186179
000020 54 f2 2d be de b0 53 bf 3d 1d fe be a8 2b e9 3d
       -0.16986972 -0.8269175 -0.49631682 0.1138528
000030 92 5a 26 bf b6 bd 50 be 74 e1 89 3d b0 2e 86 3e
       -0.6498195 -0.20384869 0.06732455 0.26207495
000040 bf 41 37 3f 48 ca af 3e 98 97 d3 3c 5e 36 5d bc
       0.71584696 0.34334016 0.025829121 -0.013501732
000050 7c 01 07 3d a9 ac b9 3e 13 ec 7c 3e e0 52 b7 3e
       0.0329604 0.36264542 0.2469943 0.35805416
000060 7f e5 cb 3e e9 39 3a 3e a2 42 80 3e df a6 e3 bc
       0.3982353 0.18186153 0.25050837 -0.027789531
000070 42 b8 e6 bd 8c b1 af be 17 11 73 3d 37 c9 6a be
       -0.11265613 -0.34315145 0.05934247 -0.2292832
000080 99 7c 3a 3e 1b 42 db 3d 9f 2e 8c 3e 39 0b 43 bc
       0.18211593 0.10705968 0.2737932 -0.011904531
000090 9a d5 46 bf 6b 85 42 bf 82 e8 40 be 10 54 ef be
       -0.7766968 -0.7598483 -0.18838695 -0.46743822
0000a0 89 e9 b2 be d9 74 c0 3e 39 0b 81 3e 8a a0 01 3f
       -0.34943798 0.37589148 0.25203875 0.5063559
0000b0 d1 07 9c 3e f3 6f 36 3c 17 7b 92 3e 24 d2 9c bd
       0.30474713 0.011135089 0.28609535 -0.07657269
0000c0 f4 c3 5b 3c 10 87 06 3d bc 9d 66 bd fe f6 0b be
       0.013413418 0.03284365 -0.05630277 -0.13668439
0000d0 5b d9 21 3e 70 c2 00 3d 48 e7 f1 bc da 94 18 be
       0.15805571 0.03143543 -0.029529229 -0.14900532
0000e0 49 c2 81 3d e1 c2 c8 3e 6b 48 a5 3e 03 9f c7 3d
       0.06335885 0.3921118 0.32281813 0.09747126
0000f0 f4 38 24 be 0c af a5 be ad 44 9d be 6d 63 4f be
       -0.16037351 -0.32360113 -0.30716458 -0.20252772
000100 22 34 48 be cb a8 36 be f6 94 5b be 81 78 6c 3d
       -0.19551137 -0.17837827 -0.21443543 0.05773211
000110 64 bf d8 be 54 7f 4d bc 85 96 a4 bd 3f b5 9d 3e
       -0.4233352 -0.012542564 -0.08036522 0.30802342
000120 04 c2 89 3d 63 27 0f 3f b6 dd 77 3e 20 34 9c be
       0.06726459 0.55919474 0.2420567 -0.30508518
000130 78 6b a2 3e 75 10 b1 3d 40 f9 93 be 71 d2 1d be
       0.31722617 0.08645717 -0.289011 -0.15412308
000140 f1 df ce 3e 92 f1 6f be 36 e7 ee 3d 67 d9 79 be
       0.4040523 -0.23431996 0.11665194 -0.24399339
000150 15 b8 6f 3e b9 cb 28 3e da 80 1f 3d 3a 76 36 bd
       0.23410065 0.16483964 0.03894124 -0.044546343
000160 57 c6 b8 bb 1b 65 1b be 8f ff e4 bd cc 4e 1c be
       -0.0056388783 -0.15175287 -0.111815564 -0.15264434
000170 bb 3e 50 bd a6 1d d3 be ab 4f 15 be c0 5d fc be
       -0.050841074 -0.41233557 -0.14581172 -0.49290276
000180 df b1 95 3e cf 29 94 bd 6d 36 85 bd 3f 7c 2e be
       0.29237267 -0.07234537 -0.065045215 -0.17039584
000190 12 7b 80 be 7a 9b 04 bc 6e 33 ae bd 9b 91 4f 3d
       -0.25093895 -0.008093709 -0.08505903 0.05067597
0001a0 25 92 58 be 01 a6 63 3d d1 45 dd bc fc fd 12 be
       -0.211495 0.055578236 -0.02701083 -0.143547
0001b0 ab d5 3a 3e 14 68 88 3e d0 2a 33 3e a5 6d 26 bb
       0.1824557 0.26641905 0.174968 -0.0025394943
0001c0 ff 91 ad 3e a9 70 86 3d aa 6f 41 be f6 59 5f bd
       0.3390045 0.06564457 -0.18890253 -0.054529153
0001d0 17 dc a0 be 72 ee 10 be 29 5e 1d 3e ed de 6f 3d
       -0.31417915 -0.1415346 0.1536795 0.058562208
0001e0 ef de 9d bd 36 82 aa 3a f1 1a 37 3e d3 e3 42 3e
       -0.07708537 0.0013008777 0.17881371 0.1903222
0001f0 62 ef 26 3d 5a 92 0f be 15 ff dd be 5d c9 04 bf
       0.040755637 -0.14020672 -0.43358675 -0.51869756
000200 fb 63 a2 3d ee 34 36 be 05 e2 8d 3e cc 5c c2 bd
       0.07929226 -0.17793629 0.27711502 -0.09490356
000210 c7 aa e0 3d cb 83 f2 3e 61 aa 86 3e 6d d9 8c bb
       0.10970073 0.47366175 0.26301864 -0.00429838
000220 ac 13 f0 3c f1 3f 75 3e 30 e7 9c bd 99 c6 23 3f
       0.029306255 0.23950173 -0.07661283 0.6397491
000230 ac 40 b5 3e 95 9a 11 3d 53 68 29 3e 56 a4 18 be
       0.35400903 0.03554781 0.16543703 -0.14906439
000240 65 cd 49 bd a1 bd 2d be bb 5e 15 bf ed 7a d5 3d
       -0.049268145 -0.16966869 -0.5834767 0.10423837
000250 d5 38 c2 3e c1 4a 95 3e 0a 59 83 bb e1 ef 0a 3f
       0.37933984 0.29158595 -0.004008417 0.54272276
000260 9b 7a bb bd 87 c7 5b be ad 0b 8d be 43 46 04 bf
       -0.091542445 -0.21462832 -0.2754797 -0.5166971
000270 6d 76 4f 3e fc f3 12 3e 70 71 cf 3b f2 79 fe bd
       0.2026002 0.14350885 0.0063306615 -0.12425603
000280 c9 d9 57 3e 38 3c 5e be 12 37 67 3d 74 43 26 3e
       0.21079172 -0.21702659 0.056449004 0.16236669
000290 ed b5 84 3e 63 4f a5 bd b8 07 59 3e 58 86 b9 3b
       0.25920048 -0.080717824 0.2119435 0.005661767
0002a0 19 12 50 be 15 81 bb be 11 de 32 be f3 95 b6 be
       -0.20319404 -0.3662192 -0.17467524 -0.35661277
0002b0 60 4a 47 be 46 7b c9 be 46 62 5f be e3 a9 bb be
       -0.19461966 -0.39351863 -0.21814832 -0.3665305
0002c0 4c 3e e6 be 02 31 55 bc d9 37 cc bc a1 20 b3 3e
       -0.44969404 -0.013012173 -0.024928974 0.3498583
0002d0 41 7c a2 3d a0 91 06 bf c0 64 d1 be cd 90 73 3e
       0.07933856 -0.52565956 -0.4089718 0.23785706
0002e0 da c6 cd 3d fd 1c 7c bd 68 11 70 be c3 cd 1d 3d
       0.100476936 -0.061551083 -0.2344414 0.038526308
0002f0 fd c3 7a be 69 3d ea 3c 46 da 1d be d2 c5 02 bd
       -0.24488826 0.028593736 -0.15415296 -0.031926937
000300 3a 2a 3a bb 01 f0 ac be 39 61 92 be 72 f9 9f be
       -0.0028406517 -0.33776858 -0.285898 -0.31245
000310 e7 23 05 3e da 5f a3 bd 4f 02 10 3f d5 1a 4f 3f
       0.13001977 -0.079772666 0.5625352 0.8090032
000320 18 66 dc 3e 2a 09 a7 3b 42 31 bc 3d 9a e5 a9 be
       0.4304664 0.005097528 0.09189083 -0.33182985
000330 bb 6a 9a 3d a1 67 06 bf eb 7f 27 bf 65 8c 66 3e
       0.075398885 -0.52501875 -0.6542956 0.22514494
000340 9a 0e 00 be af d6 0b bf 7a d1 58 bc 9a 0e 10 3e
       -0.1250557 -0.54624456 -0.013233537 0.1406807
000350 34 1c 2d 3e 0b 90 03 bf f4 26 b1 be 69 3d 08 3e
       0.1690529 -0.5139167 -0.3460003 0.13304676
000360 06 f7 60 be 6a 71 eb 3e 97 c1 f0 3e 1b 4e 15 bf
       -0.21969232 0.45984966 0.47022697 -0.58322304
000370 e7 22 53 be ba ad df be 7c b5 ae be df 2b bb bd
       -0.20618783 -0.4368723 -0.34122837 -0.09139227
000380 70 71 80 be 14 04 f1 bb 39 1c fc bb 96 62 27 3e
       -0.25086546 -0.0073552225 -0.007693794 0.16346201
000390 70 88 76 be 8f b1 7e be ab 37 8c be 72 72 d8 3d
       -0.24075484 -0.2487242 -0.2738622 0.10568704
0003a0 c1 4e eb 3c 51 cd 53 3e 40 84 04 3e 7a ec 06 3e
       0.028724076 0.2068379 0.12941074 0.13176146
0003b0 7d 79 8f be 76 64 9c 3d 06 69 51 be b8 5e 24 be
       -0.28022376 0.07636349 -0.2045022 -0.16051757
0003c0 a5 62 83 3e bf 93 82 bd 78 ee 23 3d 75 8b 6b 3d
       0.25661197 -0.063758366 0.040022343 0.057506043
0003d0 ce b5 d3 bd 92 a8 1d be 14 8a 09 bd c5 d5 03 3d
       -0.10337411 -0.15396336 -0.033578947 0.03218629
0003e0 54 48 04 bd 63 b8 33 3e ee 50 a0 3b 1b 38 55 3e
       -0.03229554 0.17550807 0.00489246 0.20822184
0003f0 72 d7 34 3c 8d a9 93 bd 49 5c 6d be df f0 f1 bd
       0.011037694 -0.072100736 -0.23179735 -0.11813521

conv1.conv2.0.bias f4 [8]
000000 23 bb 3b bd 10 68 d9 3d 96 72 92 bd 4f b4 67 3d
       -0.045832764 0.106155515 -0.07150762 0.05656844
000010 12 53 a5 bc b8 d2 76 bd 44 fa 9a bd 3b 2a aa bb
       -0.020181213 -0.06025955 -0.07567266 -0.0051930225

conv1.conv2.1.weight f4 [8]
000000 ee 72 c0 3f 45 cc 7b 3f f4 6b 88 3f 88 5a 8e 3f
       1.5035074 0.98358566 1.0657945 1.1121378
000010 a8 fe 5c 3f ca f6 4c 3f 2f 5a 81 3f 75 bc ad 3f
       0.86326075 0.8006407 1.0105647 1.3573138

conv1.conv2.1.bias f4 [8]
000000 62 85 8a 3e 3e c9 b5 3e 7a 93 f1 3e 53 4d 4a be
       0.27054888 0.35505098 0.47182828 -0.1975606
000010 52 c3 12 bd af 35 e5 3b e1 ed e3 3b bc b3 8b 3e
       -0.035830803 0.006994925 0.0069558476 0.27285564

conv1.conv2.1.running_mean f4 [8]
000000 dc f1 e6 be 95 e9 5c 3f 5c ac d2 bf 67 6a 94 be
       -0.451064 0.8629392 -1.645885 -0.2898743
000010 af 1d 95 3d ee 8d 1f be 2d 0a 6e 3e f5 3b 23 bf
       0.07281052 -0.15581486 0.23246069 -0.6376336

conv1.conv2.1.running_var f4 [8]
000000 9a 0b d5 40 de 3b 05 41 43 a1 b7 40 dc 2a b2 40
       6.657666 8.327116 5.7384353 5.567732
000010 0d e6 83 40 c2 f8 68 40 4e 06 8a 40 bf ec 47 41
       4.1218324 3.640183 4.3132696 12.495299

conv1.conv3.0.weight f4 [8, 8, 3, 3]
000000 6c d3 07 3f 7d 4d 44 be d0 02 96 be 1d 2d 88 be
       0.5305698 -0.19170184 -0.2929902 -0.2659692
000010 7a be 0d bf 7b 59 85 3e 8a 70 78 3e bf 23 07 3d
       -0.5536877 0.2604483 0.2426168 0.032993075
000020 2d 74 a2 3e 58 81 6a bb 75 fe ec bd 30 9a 8c be
       0.3172926 -0.0035782661 -0.11571971 -0.27461386
000030 59 19 10 3f 0b 39 f1 3d be ce 04 bd c0 3e 1b 3f
       0.5628868 0.11778458 -0.032423727 0.60642624
000040 6a 58 ba 3e 01 3c 48 be 3f af d1 3e 55 62 f0 3d
       0.3639558 -0.1955414 0.40954015 0.11737505
000050 e0 cd c5 be 6a 16 dd 3d f0 55 69 be 8f 96 ef bd
       -0.38633633 0.10795291 -0.22786689 -0.11698639
000060 ce 1b b5 3c 47 4b 24 be 7e 5d 82 be f8 c6 94 be
       0.022107985 -0.16044341 -0.25461954 -0.2905805
000070 34 6a 00 bf 80 20 bf bd 81 18 df bd b4 b6 68 3e
       -0.50162053 -0.09332371 -0.108933456 0.22725946
000080 6a 21 91 be ea c0 74 3e f3 ea 4a 3d c8 66 17 be
       -0.28345805 0.23901716 0.04954047 -0.14785302
000090 29 ca 26 bc a5 ba 51 bc 91 55 a3 be 5f 6f 2f 3e
       -0.010180035 -0.012800847 -0.3190122 0.17132328
0000a0 72 c4 87 3e 40 12 bf 3b c0 ca 86 3e fd db 55 3e
       0.26517063 0.005831033 0.2632656 0.208847
0000b0 c8 a4 cf 3d 61 87 6b be 04 23 47 3d e1 d8 c9 3d
       0.101388514 -0.23000862 0.048617378 0.098558195
0000c0 1b 20 8e be 68 d3 cc be b1 f6 f7 3d 8d be ee 3d
       -0.2775887 -0.4000504 0.121075995 0.116574384
0000d0 fe 9f 28 3d d4 d0 02 bf 1d c0 90 be 14 a9 62 3e
       0.041168205 -0.51099896 -0.2827157 0.2213481
0000e0 cd 21 9f 3e f7 e5 16 3d ea fd d1 3e 38 50 a4 3e
       0.31080475 0.036840405 0.41014034 0.32092452
0000f0 74 cb 66 be e3 92 5b ba ee 5c b2 bc c4 c2 1c 3e
       -0.22538549 -0.0008376075 -0.021772828 0.15308672
000100 99 0e 3a 3e f3 4a 1e 3e 17 17 23 be e0 36 c9 be
       0.18169631 0.15458278 -0.15926777 -0.3929968
000110 0b 79 c7 3d fc 02 af bd f2 fc be be 00 e2 a8 be
       0.09739884 -0.08545491 -0.37302357 -0.32984924
000120 3d d5 3c bc 6b dd 56 3d 6c cf 46 3d 23 1b 8a 3e
       -0.011525449 0.052457254 0.048537657 0.2697383
000130 b0 69 55 3d 9d 4e 1f 3e 7f ec 65 bd 0a 48 da 3e
       0.052102745 0.15557332 -0.056133743 0.42633086
000140 37 40 4d bd 47 df 91 3e 1e 8f 4c be ff 87 40 bc
       -0.05011007 0.2849066 -0.1997647 -0.011751174
000150 a5 66 21 3e 8a 11 27 be 75 4e a5 bd c3 59 27 3e
       0.15761812 -0.16315284 -0.08071605 0.16342835
000160 37 d4 27 be cc 1d ce 3d 46 af 74 3e 4a 80 ce 3e
       -0.16389547 0.10064277 0.23894987 0.40332252
000170 9c 44 b7 3d 30 28 ec bd 46 0f ef 3c ac f9 bf 3b
       0.08948633 -0.11531103 0.029182088 0.0058586206
000180 61 39 93 bd c5 6e 6a 3e ef d5 c9 be 67 c0 1d 3e
       -0.071886785 0.22893818 -0.3942103 0.15405427
000190 84 cd 6e 3e cb 36 25 be 9f 3f b6 3d da 3f d9 3c
       0.23320585 -0.16134183 0.088988535 0.026519705
0001a0 e3 6c 1d be 3b 77 09 3e ca 00 35 3e da 85 65 3d
       -0.15373568 0.13424389 0.17676082 0.056035854
0001b0 65 93 51 3d 8b 02 15 3e 3c 91 01 3f 6c fe 24 3d
       0.051165957 0.14551751 0.50612235 0.040281698
0001c0 52 5e 84 3d a1 db 83 3d 47 85 eb 3c 64 12 c7 3c
       0.06463303 0.06438375 0.028750075 0.024300762
0001d0 ac d4 91 3e ef 84 7c 3e c4 8e dd 3d 3a ae 75 be
       0.28482568 0.24660085 0.10818246 -0.23992243
0001e0 89 ad 23 3e 16 60 32 be da 11 fa 3c 1c f4 37 3e
       0.15984167 -0.17419466 0.03052609 0.17964214
0001f0 3b ec e4 3d b3 29 91 3e e9 ca f0 bd 66 1a 67 bd
       0.1117787 0.28352126 -0.11757452 -0.05642166
000200 d4 e3 77 3c a4 61 ac 3d eb 75 51 be 50 de a8 bd
       0.015130002 0.08417061 -0.20455138 -0.08245528
000210 66 ca 86 bd b8 a3 b5 be 44 24 d4 be bb 1c b6 3d
       -0.06581573 -0.3547647 -0.41433918 0.08892199
000220 59 7a c3 be 72 30 8d 3c f7 9f 05 be ab a0 df bd
       -0.3817928 0.017235015 -0.13049303 -0.10919317
000230 5d bc 9d be d8 52 73 be d6 6c b4 bd a2 60 7b bd
       -0.30807772 -0.23762071 -0.08809821 -0.061371453
000240 91 ea 29 3f 1b 20 1a 3f ca 54 ba bd b4 bf e6 bd
       0.66373545 0.6020524 -0.090982035 -0.11267033
000250 76 94 7a be 63 90 20 be a2 33 bf bd 91 31 82 be
       -0.24470696 -0.15680079 -0.0933602 -0.2542844
000260 69 96 8a be 37 22 77 be dd 5a 16 be 63 69 79 3d
       -0.2706788 -0.24134146 -0.14683099 0.06089152
000270 67 fb 0d 3e cc 9b a9 be 74 85 04 3e 87 36 71 be
       0.13865434 -0.33126676 0.12941533 -0.23555957
000280 3e 5a 37 bd 66 2f a4 3d b8 a9 cc 3e b2 4c 0c 3e
       -0.044763796 0.08016853 0.39973235 0.13701132
000290 66 22 7c be 96 09 01 3f ed 06 db 3e 1b c7 85 3c
       -0.24622497 0.5040525 0.4277872 0.016330292
0002a0 2c 57 2f be 86 91 76 be 04 22 a7 3c 00 d0 6b 3e
       -0.17123097 -0.2407895 0.020401962 0.23028564
0002b0 ae 50 31 be 60 8d b4 3d 3c 7d ba be a0 7f 77 be
       -0.17315933 0.08816028 -0.3642367 -0.24169779
0002c0 a3 14 4a bd b8 23 02 bc 59 cd 34 bc f7 c5 92 3e
       -0.049336087 -0.007943086 -0.011035287 0.2866666
0002d0 d9 59 ff 3d 29 d9 af 3d 29 94 17 bd b7 41 19 be
       0.12468309 0.08586342 -0.03700653 -0.14966474
0002e0 60 d0 94 bc 7c c8 47 be 92 04 c9 bd 78 62 c6 3d
       -0.018165767 -0.19510072 -0.09815325 0.0968675
0002f0 55 fa d1 be 7e d1 fc bd 8f b9 90 be 9e ef dc 3d
       -0.410113 -0.12344645 -0.2826657 0.10787891
000300 aa 39 52 3e b6 63 33 3e e7 6e 79 bd 31 68 88 be
       0.2052981 0.17518505 -0.06089678 -0.26641992
000310 7d 32 ea bd a8 a5 3e 3c c7 d2 c3 3c 78 09 da 3d
       -0.11435411 0.011636175 0.023904217 0.10646337
000320 39 49 65 be 57 8b 6b bd 5f f8 a4 3e 95 0e 80 bd
       -0.22391213 -0.05750593 0.32220742 -0.06252781
000330 d6 c0 f8 bd 86 31 0e 3d 8c 2e 0b 3e 8c b0 af bc
       -0.121461555 0.034715198 0.13591975 -0.021446489
000340 12 58 a2 3c 0d 8c 86 be 70 46 9e bd 4a 4f 83 3d
       0.019817386 -0.26278725 -0.07728279 0.064116076
000350 31 29 88 3d 1f de 12 be 69 0c 5b be 86 5d a2 bd
       0.06648482 -0.14342545 -0.21391453 -0.079279944
000360 9b a6 5d 3c c1 c1 6d 3e 9b e3 c5 bd f4 92 c0 be
       0.013528491 0.23218442 -0.09662553 -0.37612116
000370 76 a2 27 be 74 a3 0d 3d 35 02 e2 bc 0f 64 10 be
       -0.16370568 0.03457971 -0.027588943 -0.1410067
000380 78 af 2f 3e 92 b5 31 3d 74 cb 9a bd 00 8a f4 bd
       0.1715678 0.04338605 -0.07558337 -0.11940384
000390 f3 c7 ad be 4a 24 80 be 98 91 80 bd 8e d1 f3 bd
       -0.33941612 -0.25027686 -0.0627777 -0.11905204
0003a0 71 e0 09 3e 1a 7f 27 be ae b8 d1 3e 8c 41 86 bc
       0.13464524 -0.16357079 0.40961212 -0.016388677
0003b0 2c be c4 bd 1a 36 a3 be 28 e8 85 be f1 e9 45 be
       -0.09606585 -0.31877214 -0.26153684 -0.19327523
0003c0 cd 88 f2 bd 93 2f 84 3c 24 9e 24 3c 66 02 9d be
       -0.11842499 0.016135966 0.010047469 -0.30665892
0003d0 fa 47 b9 be 0c db f9 bd a2 eb 9f be 22 6d 5e bd
       -0.36187726 -0.12199983 -0.3123446 -0.054303296
0003e0 2c 4d af 3e 8d a6 a7 be d2 36 85 be bd c8 c2 bd
       0.34238565 -0.32744256 -0.26018387 -0.09510944
0003f0 bb 2e 30 be 00 d7 ee bd e4 99 72 bc b8 cf 66 be
       -0.17205326 -0.11662102 -0.014807198 -0.22540176

conv1.conv3.0.bias f4 [8]
000000 c1 ee fc bc d0 ce 26 3d 82 84 3d bd 95 58 4a bc
       -0.030875565 0.040724576 -0.046268947 -0.012350221
000010 1b a9 df 3d 69 b3 c7 3d 0e 89 b2 3d 5d 9a ba bc
       0.10920926 0.09751017 0.08717547 -0.022778684

conv1.conv3.1.weight f4 [8]
000000 d0 0c 85 3f 2c b4 2f 3f 9e 9c 4a 3f fe bc 84 3f
       1.0394535 0.68634295 0.7914523 1.0370176
000010 f1 6a 96 3f 61 f0 8a 3f 5d 40 b1 3f 66 0f aa 3f
       1.1751386 1.0854608 1.3847767 1.3285949

conv1.conv3.1.bias f4 [8]
000000 b0 5b f2 3e b6 6e 59 3e 7e 2c dd 3d 6d 6f df 3e
       0.47335577 0.21233639 0.10799502 0.436397
000010 74 06 a2 3e 22 76 d0 3d 7f 62 38 3e f4 70 8f 3e
       0.31645548 0.10178782 0.18006323 0.28015864

conv1.conv3.1.running_mean f4 [8]
000000 4d 75 c2 be e6 96 b4 3e 58 e6 0a bf d9 75 dd bf
       -0.37980118 0.35271376 -0.54257727 -1.7301589
000010 ac c1 f4 bf a9 f2 0d 3e e1 b8 42 c0 35 3a af bf
       -1.9121604 0.13862099 -3.042534 -1.3689638

conv1.conv3.1.running_var f4 [8]
000000 29 b6 8a 40 1e cd b1 40 08 fa 74 40 40 29 0b 41
       4.3347363 5.5562887 3.8277607 8.697571
000010 4f b2 33 41 6f c8 d5 40 db 61 a1 40 b1 f3 8b 40
       11.231032 6.680717 5.0431952 4.3734975

conv2.conv1.0.weight f4 [16, 8, 3, 3]
000000 39 0a 69 3e 3a c5 ab bd f2 9c c0 be e3 e4 4b 3d
       0.22757806 -0.08387227 -0.3761974 0.04977883
000010 92 7b 43 be 27 1c bd be c7 e7 9b 3e c6 ce 29 3c
       -0.19090107 -0.3693554 0.3045027 0.01036424
000020 ae ed b3 3e 21 d4 b9 bd 7a 95 c7 be 22 7e 38 be
       0.35142273 -0.090736635 -0.3898123 -0.18016866
000030 7f dd 1c 3c 80 ce 32 bd a3 f5 ff bd ac 7e ab bc
       0.009574293 -0.043653965 -0.12498023 -0.020934425
000040 2b 41 fa 3b 49 6e b1 3c ca d3 75 be 63 c3 e1 3c
       0.007637163 0.021659033 -0.24006572 0.027558988
000050 00 dc b8 bd a5 93 80 be fc dd 13 bf 92 71 ae bd
       -0.09026337 -0.25112644 -0.57760596 -0.085177556
000060 93 e8 56 3e 47 a5 6e 3e 88 24 87 3e e2 de 2e be
       0.20987158 0.23305236 0.2639506 -0.1707721
000070 6d 34 04 be 64 63 83 3d 65 a2 4b bc 42 ba 1b 3d
       -0.12910624 0.06415442 -0.012428855 0.038019426
000080 4f 4e 0d 3c 9d e5 bb 3d e4 5b 45 be e3 1f 92 3e
       0.008624627 0.09174655 -0.19273335 0.28539953
000090 46 7f 90 be 8a f7 a0 3d 2c fd 39 bc dd 8d 17 3c
       -0.28222102 0.07859714 -0.011351865 0.009250131
0000a0 c3 46 b1 bd a7 c1 b5 3d 6c 13 86 be 14 4b 1f be
       -0.08656075 0.08874827 -0.26186693 -0.15555984
0000b0 70 bf a9 3e a0 ad b8 3d f4 e8 37 3e d3 8e 93 3d
       0.33153868 0.09017491 0.17959958 0.07204976
0000c0 ca 37 e9 be 15 0f a1 be 12 6a 0e be 7e 71 7e 3e
       -0.45550376 -0.3145682 -0.1390765 0.24847981
0000d0 a4 ba a7 be c8 21 d1 bd 3a 21 72 3c 98 3b a5 3d
       -0.32759583 -0.102115214 0.01477843 0.08068007
0000e0 ad 1a ba bc c8 69 12 3c 22 d2 b0 be 4d ab 0f 3b
       -0.022717798 0.008936353 -0.3453532 0.0021922172
0000f0 bc 6d 42 be 01 8c 58 bd bb 27 6d 3e 0a c1 1e 3d
       -0.18987173 -0.052867893 0.23159687 0.038758315
000100 c1 3b 9b 3e f2 15 32 3b b9 0f 10 be 16 57 b1 bd
       0.30319026 0.0027173725 -0.14068498 -0.086591884
000110 e4 da 30 bd 07 cd a0 be 1c c1 6e 3e 60 51 ca bd
       -0.0431775 -0.31406423 0.23315853 -0.09878802
000120 bf 6d 12 bd 59 7a 89 3c 97 d9 4f bc 41 ab 59 bd
       -0.035749193 0.016781973 -0.012686155 -0.053141836
000130 96 b0 2e be 55 20 a1 be b4 a8 90 3d a4 a1 78 be
       -0.1705955 -0.3146998 0.070634276 -0.24280411
000140 2d 0b 8b be 42 76 0d 3e 5b 03 d2 3e 70 15 78 bd
       -0.27156964 0.13814643 0.41018185 -0.06056732
000150 c1 82 37 bd 22 5e 86 3d ab f0 f2 3d 5d 29 5e 3d
       -0.04480243 0.06560923 0.1186231 0.054238666
000160 71 0e 3b 3e 1f 25 85 3e 75 a2 69 be 40 39 ee bd
       0.18267228 0.26004884 -0.22815879 -0.11632013
000170 bf 46 5e be a0 a9 d2 be cc 44 68 be 87 ce 73 3e
       -0.21706675 -0.4114504 -0.22682494 0.23809253
000180 6c 3d 64 3c 1c 12 91 bd 62 88 b0 bc 2a 6b 35 3e
       0.01393066 -0.07083532 -0.021549407 0.17716661
000190 90 9c ff 3b b3 43 ae be 57 cb 31 bc ca 0d 2f be
       0.007800646 -0.34036025 -0.010851703 -0.17095104
0001a0 a4 4b f5 3b ff d8 fc bd 27 f0 1b be 59 43 c2 3d
       0.0074858237 -0.12346076 -0.1522833 0.09485502
0001b0 20 46 f6 3e 2f 01 f7 3e 91 02 69 3c 78 4a 0b bd
       0.48100376 0.4824309 0.014221803 -0.034006566
0001c0 d1 37 74 be 40 f6 8b 3e 98 09 de be d9 91 92 be
       -0.23849417 0.2733631 -0.43366694 -0.28626898
0001d0 39 e6 df be ae b9 14 be 48 7c 60 3e ed f0 de 39
       -0.43730333 -0.14523956 0.2192241 0.00042522643
0001e0 24 ca e9 3c b8 b3 b2 3d 5a 4d 07 bc 91 e3 8d be
       0.028538771 0.08725685 -0.008258188 -0.27712682
0001f0 f1 8d 14 be 45 08 69 be 44 a1 26 3d 8a df 2c 3e
       -0.14507271 -0.22757061 0.04068114 0.16882148
000200 d2 51 51 3e 7e 90 8d 3d 56 7a 10 bd 19 78 39 3e
       0.20441368 0.06912325 -0.03527292 0.1811222
000210 5e be 01 be e4 7d 2a bd 3b cb b7 be 7a cf 8d 3e
       -0.12670276 -0.041623965 -0.3589724 0.27697355
000220 d7 73 76 3e 52 55 fe 3d b9 e1 57 bd 5b 8f 50 be
       0.24067627 0.12418617 -0.0527055 -0.20367186
000230 ad bf 2a bb 8a a6 94 be cd 30 3a be 00 31 66 3e
       -0.002605419 -0.2903331 -0.18182679 0.2247963
000240 5c 5f 1b 3d 29 dc eb be 09 d9 3a be 75 9e 69 3d
       0.03793274 -0.46066406 -0.18246855 0.057035882
000250 4b e9 b0 be d2 fd bd be db 5d 54 bd cc 21 c5 be
       -0.34552988 -0.37107712 -0.05184732 -0.38502347
000260 a3 7f c5 bd 2e 09 81 3d 5c a4 aa 3e 23 07 ab 3d
       -0.096434854 0.06300579 0.3332852 0.083509706
000270 e9 43 33 be b9 5c ae 3e de ce 55 3e bc 3a 42 3e
       -0.17506374 0.34055117 0.20879695 0.18967718
000280 36 7b 66 bd d6 ee a5 be 42 96 91 be 60 1b ba 3d
       -0.056269847 -0.3240878 -0.2843495 0.090872526
000290 42 5a a8 3d 46 8c 38 3e 58 66 98 3c a5 b3 bd 3b
       0.0822034 0.1802226 0.018603489 0.0057892376
0002a0 04 d3 dc 3d a3 d1 de 3e 7f 4a 2c 3e 30 1a 5e bd
       0.107824355 0.43519315 0.16825293 -0.054224193
0002b0 4f 61 f5 3d df a2 0c bc 60 ea 6d be 7a 3f 89 be
       0.11981451 -0.008583753 -0.23233938 -0.2680624
0002c0 b2 1f d7 bc 72 73 6f be 50 e1 65 bd fb 41 b9 bd
       -0.02626023 -0.23383883 -0.056123078 -0.09045788
0002d0 37 0c 1c 3f b9 cb 90 3e a4 72 5d bd 11 3c 93 3d
       0.6095614 0.28280428 -0.054064408 0.07189191
0002e0 55 f8 26 be 66 c5 28 3e 7f ef 19 bd c7 cc cd be
       -0.16305669 0.16481552 -0.037581917 -0.40195295
0002f0 8c 7f 2d bb 25 63 15 be 1f 40 5e be 5c b1 85 3e
       -0.002647373 -0.14588602 -0.21704148 0.26111877
000300 fe 1e b5 bd 02 cb 31 be 51 75 24 3e ce 4d 37 ba
       -0.08843802 -0.17362598 0.16060378 -0.000699249
000310 d2 f1 07 be 0c dc 13 3d 44 2f 87 be 5e 47 c4 3c
       -0.13275841 0.036098525 -0.26403248 0.023959812
000320 6a 95 6a be 52 78 30 3d 82 85 26 be 3e bf 99 bc
       -0.2290856 0.043083496 -0.16261867 -0.01876795
000330 75 38 7c 3d 53 8b 52 3d 39 a9 d9 3c 3c ff e3 3a
       0.06157728 0.0514024 0.02656995 0.0017394791
000340 7c e2 44 3d 55 98 dd be 44 d1 88 be 8a eb 43 3d
       0.048067555 -0.43280283 -0.26722157 0.04783205
000350 e7 e0 75 3e 19 65 88 bd 4a bf 6c 3e 86 c7 b6 3e
       0.24011575 -0.06659908 0.23119846 0.356991
000360 1f a5 42 3e b3 8c a5 3e 1c b4 c4 3e f6 1e 41 3e
       0.19008301 0.32333907 0.38418663 0.18859467
000370 3f 90 f9 3e db a0 0f 3e ef c5 07 be e7 99 e7 be
       0.48742864 0.14026205 -0.132591 -0.45234606
000380 1e e1 88 3d b1 65 3e be 01 e8 7b be c0 49 bb be
       0.06683563 -0.1859348 -0.24600221 -0.36579704
000390 8c d1 31 3e 28 f4 19 bc 3a dc be 3d 75 8f 9e 3c
       0.17365092 -0.00939659 0.09319349 0.019355515
0003a0 82 bf d7 bd c0 01 b4 bd b6 32 f1 3c ee d0 cd 3e
       -0.10534574 -0.08789396 0.029443126 0.40198463
0003b0 88 86 4f 3e c6 3f ec bd c4 e3 08 3e d6 1c 24 3e
       0.20266163 -0.11535601 0.13368136 0.16026625
0003c0 4c 23 04 be 46 d4 91 be 32 46 47 bd 22 8a a9 3d
       -0.1290409 -0.28482264 -0.048650928 0.082783
0003d0 7c 18 54 3e f1 36 95 3e 27 eb 42 bd af 98 c3 3e
       0.20712465 0.2914348 -0.04758754 0.38202426
0003e0 a4 73 65 3e 31 80 85 bd fa 69 6d bd ff c2 39 3e
       0.22407395 -0.06518591 -0.057962395 0.18140791
0003f0 9c de 90 be e2 0a 84 be 54 13 43 3e e5 b5 21 3e
       -0.28294837 -0.25789553 0.19050342 0.15792044

conv2.conv1.0.bias f4 [16]
000000 76 1d c5 3c d1 2a 5f 3d 7b 0c 08 bd ec 47 b7 ba
       0.0240619 0.054484192 -0.033215027 -0.0013983226
000010 cc c5 68 3d f6 c5 97 bd 79 a1 79 bd 34 c6 a8 3d
       0.05682926 -0.07410805 -0.060945008 0.08240929
000020 d8 27 e0 3d 43 4d ae bd 96 9e 50 bd 9d a2 45 bd
       0.109450996 -0.0851083 -0.05093249 -0.048250783
000030 36 34 be 3d ff 1f 63 3d e0 aa a7 3d 2c 98 d6 bd
       0.09287302 0.055450436 0.08186889 -0.10478243

conv2.conv1.1.weight f4 [16]
000000 e7 5e 82 3f 5a 8c 56 3f 58 c0 65 3f 69 a2 69 3f
       1.0185212 0.8380791 0.8974662 0.91263443
000010 fd 85 b1 3f fb c2 57 3f 14 f7 85 3f 91 5d 91 3f
       1.3869015 0.8428189 1.0466027 1.1356679
000020 32 bb 6d 3f e8 f9 a8 3f a3 08 8d 3f 65 a0 2c 3f
       0.9286376 1.3201265 1.1018261 0.6743224
000030 90 38 8c 3f f8 bf 92 3f 71 3f 57 3f 0d c3 71 3f
       1.0954762 1.1464834 0.8408118 0.9443825

conv2.conv1.1.bias f4 [16]
000000 13 c1 56 3e ea 0c cb be 69 f0 3c be 8b 64 9a be
       0.2097209 -0.3965829 -0.18451084 -0.30154833
000010 e0 9b ce 3e 7a 3c 28 be 9d 80 a1 be 7c 07 b0 3e
       0.40353298 -0.1642932 -0.31543437 0.3438071
000020 99 55 46 be bc b8 11 bd 0d 03 7a 3d e1 65 60 be
       -0.1936859 -0.035576567 0.061038066 -0.21913864
000030 51 8d 94 3d b0 c3 c4 3e 0a 36 36 3d 91 76 5d 3d
       0.072535165 0.38430548 0.04448513 0.05406815

conv2.conv1.1.running_mean f4 [16]
000000 88 92 de bf f5 79 bb bf 40 90 d2 bf ae ed 07 40
       -1.7388468 -1.4646593 -1.6450272 2.1238818
000010 2c d4 12 bf 4f 09 c8 3f 2f 78 04 bf 67 c2 b4 bf
       -0.57355 1.5627841 -0.51745886 -1.4121827
000020 fd 4f 80 c0 ac cd 77 c0 f4 f1 19 c0 ea 0f b4 3f
       -4.009764 -3.8719282 -2.4053926 1.4067357
000030 14 1e 9a bf 9e 71 30 c0 d4 a2 d8 be 4b 44 50 bf
       -1.2040429 -2.7569346 -0.42311728 -0.81354207

conv2.conv1.1.running_var f4 [16]
000000 e0 1c 58 40 ac 49 af 40 d7 a6 86 40 17 8b fa 40
       3.3767624 5.477743 4.207866 7.8294787
000010 a0 33 15 41 6f 20 91 40 8a 7d 67 40 e2 35 3e 40
       9.325104 4.535209 3.6170373 2.9720387
000020 89 59 99 40 33 b9 18 41 f2 cb 7e 40 95 03 5d 40
       4.7921796 9.545215 3.9811978 3.4533436
000030 b5 1f a6 40 3b a0 ca 40 50 83 90 40 eb 59 80 40
       5.1913705 6.3320594 4.5160294 4.0109763

conv2.conv2.0.weight f4 [16, 16, 3, 3]
000000 f0 95 6a 3c 6c c9 04 be 1c 6f 3c bc 2e 84 e5 bd
       0.014317974 -0.12967461 -0.0115011 -0.11206852
000010 f6 ad 05 bd ed 31 e4 3d cc b7 86 3e 3e f4 3a 3e
       -0.032636605 0.11142335 0.263121 0.18257234
000020 a0 81 42 3d 6b 79 eb bd 12 54 da 3d 2b 4e dd 3d
       0.0474869 -0.11497768 0.106605664 0.10805925
000030 22 27 c7 bd 19 c3 34 be 89 07 34 be 16 02 c2 bc
       -0.09724261 -0.17652549 -0.17581 -0.023682635
000040 cb bb fe bd ce 72 50 be 74 51 82 bd 2e 58 c0 be
       -0.124381624 -0.20356295 -0.06363192 -0.37567276
000050 33 17 2c bd 9f fa 04 3c 74 f9 bd bd 21 89 02 3b
       -0.042014312 0.008116393 -0.09276095 0.001991816
000060 5d 94 61 bc c1 18 68 3d eb 8a ee 3c 65 52 0f 3e
       -0.013768283 0.056664232 0.029118976 0.13996275
000070 ed e5 72 3d e5 44 3b 3e 60 27 a8 ba 5f 6f 98 be
       0.059301306 0.18288 -0.0012829117 -0.2977247
000080 16 f4 13 3d cd de 85 bd 83 1b 19 bd 3d f3 48 3c
       0.03612145 -0.065366365 -0.037379753 0.012265024
000090 48 84 c1 be 84 1d 47 be 35 80 b6 bc ab 76 e7 be
       -0.37796235 -0.19444853 -0.02227793 -0.45207724
0000a0 d5 02 a9 be ba 5c 3a 3e a3 8d 8f 3e e8 da 95 be
       -0.33009973 0.18199435 0.28037748 -0.29268575
0000b0 db 10 63 be 05 e8 20 be 78 a1 51 be 4c 40 b9 3d
       -0.22174399 -0.15713508 -0.20471752 0.09045467
0000c0 ea 95 a6 bd 05 f7 04 3d 41 a6 4b bd 6f 8c 09 be
       -0.081340626 0.03246214 -0.0497191 -0.13432477
0000d0 bc c6 47 be f3 47 78 3d e0 82 11 bd 20 22 ae 3d
       -0.19509405 0.06061549 -0.035525203 0.085026026
0000e0 a1 65 a6 3d 9c 7b 66 be 1e aa 44 3c fd 13 0f be
       0.08124853 -0.2250809 0.01200345 -0.13972469
0000f0 75 66 85 3e 99 46 63 3d 53 b7 43 be fd 55 9d 3e
       0.2605473 0.05548725 -0.19112901 0.30729666
000100 00 1d db be 60 08 33 be 95 98 9f 3c c1 e4 dd be
       -0.42795563 -0.17483664 0.019481936 -0.43338588
000110 39 4a 8a 3e 85 6d 9d bd 56 d7 85 3e 85 f7 8d 3e
       0.27009752 -0.07686905 0.2614085 0.27727905
000120 f7 ec 04 3e 4a 10 b0 3d 84 a5 c3 bc 10 77 48 3d
       0.1298102 0.08596857 -0.023882635 0.04894167
000130 8c 05 bf 3b 92 fe 4b 3e eb 23 18 be b4 36 10 3e
       0.0058295187 0.1992133 -0.14857452 0.14083368
000140 5e 83 3d bd 90 2b 38 bc 13 1f bb 3d e6 40 24 be
       -0.04626786 -0.011240855 0.09136786 -0.16040382
000150 03 29 28 3d 6f 27 bc 3d 4c f6 0b 3e c0 28 00 be
       0.041054737 0.09187209 0.13668174 -0.12515545
000160 6f 59 2b 3d fa e9 5b bd 6e a8 9b be 4a 5e 43 be
       0.041833337 -0.053689934 -0.3040194 -0.19078937
000170 bd 7b 93 bc d9 16 62 be 4a 80 17 be fa 35 40 be
       -0.018003339 -0.22079028 -0.14795032 -0.1877059
000180 83 92 1f 3e 64 81 24 3e 1f 77 15 3e a8 4c 12 3e
       0.15583234 0.16064984 0.14596222 0.14287055
000190 03 2c 33 3d 8e 7f 92 3d f5 8b 8d bd 65 a6 98 bd
       0.043743145 0.071532354 -0.0691146 -0.07453612
0001a0 b8 75 97 3c 1a 58 89 3d 8e 73 38 3a 70 6f aa be
       0.01848875 0.06706257 0.0007036262 -0.33288145
0001b0 a6 7e 88 be 19 01 c1 bd 85 22 cf be d5 1e cf bd
       -0.26659125 -0.094240375 -0.40456024 -0.101133026
0001c0 ca 82 8b bd 57 79 71 be 8c 15 8e 3d 32 2d 73 3d
       -0.068120554 -0.23581444 0.069377035 0.059369273
0001d0 94 7e 77 3e 69 ee ba 3d 69 e1 e3 3b 5f 13 69 be
       0.2416938 0.091275044 0.006954361 -0.22761296
0001e0 32 ec 51 3d 7d 2d 14 3e c2 ae 8f bd ff 65 d7 bd
       0.051250644 0.14470477 -0.07015754 -0.10517501
0001f0 c2 e5 4c bd 7f c1 31 3e e9 cb 87 3d 1f 7d 4d bd
       -0.0500238 0.17358969 0.0663069 -0.050168153
000200 5a 27 36 bd 78 31 28 be 47 d5 c7 bd 36 02 36 be
       -0.044471122 -0.16425121 -0.09757476 -0.17774281
000210 0d 29 fe bd 3a a1 a9 bd b7 46 e4 bd ff c3 b6 bb
       -0.124101736 -0.08282705 -0.111463 -0.005577564
000220 e3 7d 01 3e 6e 19 ad bc fe 9e 82 3d e4 57 a6 bc
       0.12645678 -0.02113029 0.063779816 -0.020305581
000230 32 cb b7 bc a9 26 3f bd e8 15 c5 3d 8b d5 4c be
       -0.022435758 -0.04666773 0.09623319 -0.20003335
000240 1d 19 23 be f2 42 3a 3d c9 cb 4c bd f8 cc 17 3d
       -0.15927549 0.045474 -0.049999032 0.037060708
000250 25 07 97 3c f4 68 08 3e 1a 38 c0 3d 75 f0 a4 bd
       0.018436024 0.13321286 0.093857005 -0.08053676
000260 cc 82 8e 3d 06 ec e4 bd da d3 26 be 23 bf 09 be
       0.06958541 -0.111778304 -0.16291752 -0.13451819
000270 d2 d8 01 bd a4 58 f6 bd ea 1c 9d 3d a9 4a 61 3e
       -0.031700917 -0.120286256 0.076715305 0.22001137
000280 93 e8 22 3c 0e 9a 17 3e 4b 62 a3 be 00 fd 86 be
       0.009943145 0.14804861 -0.3191093 -0.263649
000290 76 88 12 3a fb 55 8c be 00 d9 aa bd eb b6 2c bd
       0.0005589792 -0.27409348 -0.08342171 -0.04216663
0002a0 e5 64 1b be 27 07 03 bd d1 6a 1f 3e 86 71 5e 3e
       -0.15175207 -0.031989243 0.15568091 0.21722993
0002b0 56 b7 a8 bd 9a 71 51 bb 7c 5a 9a 3e 2c d3 c5 3d
       -0.082380936 -0.003195858 0.3014716 0.096594185
0002c0 55 eb 86 be 3a 07 cf bd 90 20 85 3d 7f 87 35 3e
       -0.2635142 -0.101088 0.065003514 0.17727469
0002d0 2f 1c f9 bc 60 cf 20 be ae 65 27 be 89 5e ea 3d
       -0.030408947 -0.15704107 -0.16347381 0.114438124
0002e0 a9 1b 98 3e 9f 77 2e 3e 90 a7 23 be a8 bb ff 3d
       0.29708603 0.1703782 -0.15981889 0.124869645
0002f0 4c e0 aa bc 42 54 24 be e5 34 8f bc 54 6c 4a be
       -0.020858906 -0.16047767 -0.017481277 -0.19767886
000300 05 b2 13 bc 1d 7d 3a be 11 61 3b be dc dc 73 bc
       -0.009014611 -0.1821179 -0.18298747 -0.0148842
000310 69 2c 6a 3e af 94 c3 3d e3 5a 45 be 60 a7 31 be
       0.22868504 0.095498435 -0.19272952 -0.17349005
000320 e3 8a 92 be c2 e1 7e be 3d ad ce bd 5d 19 a2 3c
       -0.28621587 -0.24890807 -0.10091636 0.019787485
000330 08 3d 64 be 03 70 5f 3d 82 ba ed 3d 35 dd a3 3e
       -0.22288907 0.054550182 0.11607839 0.32004705
000340 08 93 ee 3d 1a 3b cd bd 1a 12 08 be 48 43 73 3e
       0.11649138 -0.10021038 -0.13288155 0.23756135
000350 74 66 1a 3e 41 72 94 3e ba 18 0d 3e 57 d1 f9 bd
       0.15078145 0.2899342 0.13778964 -0.121981315
000360 3e 04 0c bd f4 ef b8 3c 3d b8 a5 3d e5 64 55 3d
       -0.034183733 0.022575356 0.08091781 0.052098174
000370 07 55 2a bd 7f bd 01 bd 89 9b 55 3e e1 a9 64 be
       -0.041584995 -0.03167486 0.20860113 -0.22330429
000380 57 87 f9 bd b2 7e 84 be 1f d8 6b be d1 3b 8f be
       -0.12184017 -0.2587791 -0.23031662 -0.27975324
000390 42 91 9c 3e b9 1b 8b 3d 6a 54 2c 3e 3b 4c 47 3e
       0.30579573 0.06792397 0.16829076 0.19462673
0003a0 82 4a 4c 3e db 91 e9 3d 7b b7 7a bd f8 48 a4 3e
       0.19950297 0.11404773 -0.061210137 0.3208692
0003b0 b0 6a e8 3d 98 40 66 bc 9c 80 7e bd bb 85 11 3d
       0.11348474 -0.014053486 -0.06213437 0.035527926
0003c0 d5 71 00 be b2 f2 99 bd a2 2a 03 be 40 37 73 3e
       -0.12543423 -0.075169936 -0.12809232 0.23751545
0003d0 fa a4 57 bd f1 19 15 be f3 bf 50 bd 4b 74 d4 3d
       -0.05264757 -0.14560677 -0.050964307 0.103737436
0003e0 fa 0b df 3c b7 d3 ab bc 01 a5 58 3d be f3 00 3e
       0.02722739 -0.020974977 0.052891735 0.1259298
0003f0 f8 71 6e bd 3c 2d 10 3e 4b d1 ab 3d 53 41 2e be
       -0.058214158 0.14079756 0.08389529 -0.17017107

conv2.conv2.0.bias f4 [16]
000000 97 ca 7b 3c 0e c7 a9 bd 8a 60 1e bd 5a b0 7f bc
       0.015368125 -0.0828992 -0.038666286 -0.01560601
000010 5c 99 42 bd 70 79 d3 3c d7 2f 20 bd 98 aa 98 bd
       -0.047509536 0.025814742 -0.039108124 -0.07454413
000020 fe 23 8e 3d 1d 19 37 bd 5d 68 80 bb ab 70 1d 3d
       0.06940459 -0.044701684 -0.003918691 0.038437527
000030 5b 1a 83 3d cf 57 24 bd 89 c0 db bc 35 92 70 3d
       0.06401511 -0.040122803 -0.026825206 0.058733184

conv2.conv2.1.weight f4 [16]
000000 dd e6 78 3f e0 33 54 3f a6 61 87 3f aa 09 57 3f
       0.9722727 0.82891655 1.0576675 0.8399912
000010 c7 ee 86 3f 5e 70 95 3f 8e 5f 65 3f ef 07 80 3f
       1.0541619 1.1674917 0.8959893 1.0002421
000020 42 07 56 3f a6 8e 97 3f 14 04 7c 3f 38 b6 82 3f
       0.83604825 1.1840408 0.9844372 1.0211859
000030 d6 17 90 3f d3 b4 97 3f 83 92 8e 3f d6 61 98 3f
       1.1257274 1.1852058 1.1138462 1.1904857

conv2.conv2.1.bias f4 [16]
000000 cf d5 59 3d a8 11 af bd cb 99 ee bd f3 6f ba 3c
       0.05318242 -0.085482895 -0.116504274 0.02275846
000010 a8 d4 ea bd 0c d9 04 3f ab 61 4a 3e a8 1e c8 bd
       -0.11466342 0.5189369 0.1976382 -0.09771472
000020 9b 26 e6 3c 8d da 4c 3e f6 fa 29 be 66 2c fa be
       0.02809458 0.20005246 -0.1659964 -0.48861998
000030 90 86 35 be c1 3c 8a 3e 91 0d be 3d 1e de 12 be
       -0.17727113 0.26999477 0.09279931 -0.14342543

conv2.conv2.1.running_mean f4 [16]
000000 4f 87 04 c0 0b 4a d8 3d df 49 30 bf b1 ff 6e bf
       -2.0707586 0.105609976 -0.6886272 -0.93358904
000010 22 10 29 3e b2 ec 11 c0 aa 5b b8 3e c0 bc d5 3d
       0.1651006 -2.2800717 0.36007434 0.10436392
000020 28 c9 45 3f 97 95 fb bf 7f 91 64 bf 76 75 b8 be
       0.77260065 -1.9655026 -0.8928451 -0.36027116
000030 b9 d5 b5 be 41 22 18 c0 a8 e6 0f bf 2d a0 80 3f
       -0.3551462 -2.3770907 -0.5621133 1.0048882

conv2.conv2.1.running_var f4 [16]
000000 71 5c 31 40 55 e3 0e 40 ae d4 aa 40 29 30 9a 40
       2.7712672 2.2326252 5.338462 4.818379
000010 b9 49 7d 40 88 e2 44 40 67 a7 73 40 a5 f6 16 40
       3.9576247 3.0763264 3.8070924 2.358804
000020 a1 02 8f 40 0a 13 b5 40 0f 0b b7 3f 96 ac 90 40
       4.469071 5.658574 1.430025 4.5210676
000030 fc 0f 8a 40 3b 39 87 40 14 1b 46 40 d2 9f 1b 41
       4.314451 4.225736 3.0954027 9.726519

conv2.conv3.0.weight f4 [16, 16, 3, 3]
000000 eb 37 12 3d 5e af 48 be f0 33 4f be d5 86 47 3e
       0.03569786 -0.19598147 -0.20234656 0.19485028
000010 25 75 25 be 53 96 00 3e 54 bc 9f bd 0f 03 63 be
       -0.16157968 0.12557344 -0.077995926 -0.22169136
000020 7a c0 27 bd 6a 2b 8f 3d 6b e8 b2 3d 10 0f 25 be
       -0.040955044 0.069907025 0.087357365 -0.16119027
000030 98 ab 1b be ad 31 45 3c 48 09 58 3e cf 64 5f 3d
       -0.15202177 0.012035769 0.2109729 0.054539498
000040 8d b2 69 be 8c 9c dd 3d 24 b0 ed bd d3 b0 13 bc
       -0.22822018 0.108208746 -0.11605862 -0.009014326
000050 bd 57 a5 3b 9b 29 06 be cc 00 ef bc 8d 4a 09 be
       0.0050458596 -0.13101809 -0.029175185 -0.13407345
000060 34 e5 8e 3d a7 cd cd 3d fa 26 34 3d ef 93 ef 3d
       0.06977311 0.10048991 0.043982483 0.11698138
000070 75 aa e4 3e 98 4a 6f 3e c1 00 4c 3c 78 25 dd bd
       0.44661298 0.23368299 0.012451352 -0.10798162
000080 e3 46 09 3e 3a 29 9a 3d 87 b1 34 3e 68 1d d7 3e
       0.13405947 0.075273946 0.17645846 0.42014623
000090 96 67 fb 3d 3d 1b 48 bd 02 ac 85 3d b5 9e 58 be
       0.12275617 -0.0488541 0.065269485 -0.21154292
0000a0 f4 9f 23 be 0f 1a 71 bd c7 40 99 3c 2d 1a a8 bb
       -0.15978986 -0.058862742 0.018707646 -0.0051300735
0000b0 0e 86 9e bd 9e b9 53 3d e2 1c ce bd 8e 46 cb bd
       -0.07740413 0.05169069 -0.10064103 -0.099255666
0000c0 bf 9f bf bd 4c 36 88 bd 14 93 4e be 9c 93 76 bb
       -0.09356641 -0.06650981 -0.20173293 -0.0037624603
0000d0 ed 94 db 3d 2a e2 9a bd 77 58 83 bd 9d 68 59 3c
       0.10721765 -0.075626686 -0.06413358 0.013269571
0000e0 94 e8 bb 3d 4d f3 32 be 08 3c bd bc f1 b5 96 bd
       0.0917522 -0.17475624 -0.023099914 -0.07358921
0000f0 6d 6a d2 bd 67 5b 9d be 02 5a 35 be cb 66 73 3d
       -0.10274205 -0.30733797 -0.17710117 0.059424203
000100 a4 e0 fa 3e 04 7c 97 3e 04 46 93 bc 0c a7 d9 bb
       0.48999512 0.29586804 -0.017977722 -0.006642228
000110 12 b3 69 be 48 0f df bc 50 25 2b 3e 39 7b af 3d
       -0.22822216 -0.027228966 0.16713452 0.08568425
000120 fa fb 0e 3e 8a 5a 90 bc 74 e4 90 3c 26 69 8e bd
       0.13963309 -0.017621297 0.01768706 -0.06953649
000130 e8 9c 0b 3d c2 9e 08 be 6e b5 cb 3d 52 72 e5 3c
       0.034085184 -0.13341811 0.09946714 0.028008614
000140 92 df af bc cf 30 11 be 52 ad 3a 3c 3c 0b 01 3e
       -0.021468911 -0.14178775 0.011393862 0.12601942
000150 8d 88 2a 3e 16 9c e1 bd 18 d0 79 bd 79 ee 0a bc
       0.16653652 -0.11016099 -0.06098947 -0.008479708
000160 0c 56 c4 bd 4d ad 6e bd 93 5f 72 3d 7d 34 8a 3c
       -0.09586725 -0.05827074 0.059173178 0.016870731
000170 87 12 1b bd 87 f1 d4 bd fd 88 3f bd 72 7b 5a be
       -0.037859466 -0.1039763 -0.0467615 -0.21336153
000180 01 7e 89 3d b1 91 4c be 09 22 1d 3d 1a eb 85 bd
       0.067134865 -0.19977452 0.038362537 -0.06538983
000190 38 f6 3c 3d b6 b2 a8 3d f5 2d 0f 3c 6d 44 fd 3d
       0.04613325 0.082372114 0.008738984 0.12366567
0001a0 0c e7 33 3c ae 4b e7 3d 8d 97 82 3e 9d b0 96 bc
       0.010980379 0.11293732 0.2550625 -0.018394763
0001b0 03 34 d2 3c 0b f9 b9 bc ab 0c af 3c ea 8e 16 bd
       0.025659567 -0.02270176 0.021368345 -0.036757387
0001c0 2c e1 10 3e 27 79 aa bd f2 19 08 3e 52 b1 8b bc
       0.14148396 -0.08323889 0.13291147 -0.017052326
0001d0 df cd 9a bd 60 46 6c 3d 6e 32 42 3e 76 04 c0 3e
       -0.07558798 0.057684302 0.1896455 0.37503403
0001e0 c7 81 7e be 17 b6 32 be 02 fe 16 be fc 1a a6 bb
       -0.24854194 -0.17452274 -0.14745334 -0.0050691348
0001f0 0d 97 20 3d 2e 40 46 3d 67 f5 2d be c2 56 1c bd
       0.039206553 0.04840105 -0.16988145 -0.038168676
000200 ba 21 d1 bd 97 ed a2 3e 8d e2 f5 3d d5 71 71 bd
       -0.10211511 0.31821892 0.12006102 -0.05894645
000210 c9 44 41 3d f3 0a e5 3c 4b 63 b8 bb 49 15 17 3e
       0.04718474 0.027959323 -0.005627071 0.14754213
000220 0c 80 9f bc 72 2f 22 3e 58 5e 7e bd ec 8a e2 3d
       -0.019470237 0.15838411 -0.062101692 0.110616535
000230 8f 77 77 3e b3 4c f7 3d 2c d5 d0 3e 34 b0 4d 3e
       0.24166702 0.12075176 0.40787637 0.20086747
000240 4d 27 1f bd 04 fa c6 bd bf 38 18 bd 86 2e 6c bc
       -0.03885584 -0.097156554 -0.037163492 -0.014415389
000250 49 88 8b bd bd cb 3d 3e 45 51 54 3d d4 3e 7b 3d
       -0.06813104 0.18534751 0.051835317 0.061339214
000260 e9 9b 87 3e f7 e2 1e bd ff 14 69 be e5 0f f1 bd
       0.26486138 -0.03879067 -0.22761916 -0.1177061
000270 22 da 19 be 46 70 29 3d 34 6d 31 be e4 d3 e0 bc
       -0.15024617 0.041366838 -0.17326814 -0.027444787
000280 e7 df 13 3e 65 6e 82 bb 9c 52 0b 3d cc 31 8f 3d
       0.1444088 -0.003980445 0.03401433 0.0699192
000290 d2 f0 bf 3d 38 97 99 be 2e 2a 4b bd 13 7b 64 3c
       0.09372105 -0.29998183 -0.049600773 0.013945359
0002a0 bb 61 33 bd f9 44 f8 bb e3 7a 11 bd 59 84 67 bd
       -0.043794375 -0.0075765816 -0.035517585 -0.0565227
0002b0 12 ef db bc 4a 8d 34 3d 61 55 07 3c ec b5 a2 3d
       -0.026847396 0.044080056 0.008260102 0.07944855
0002c0 1d 4a 8e bd 88 df 65 be 4a 5f 1f be 43 e5 ad be
       -0.0694773 -0.22448552 -0.15563694 -0.33963975
0002d0 c3 3c 01 3e fd 1b f7 bd 36 b1 86 bd ec 40 1a bd
       0.12620835 -0.12065885 -0.06576769 -0.03765957
0002e0 b5 41 4b bd 35 fc cd bd e9 4a 5e bd 2f 87 f7 3d
       -0.04962321 -0.1005787 -0.05427066 0.12086331
0002f0 f5 4e 81 3e 28 cd 13 be e8 0e f1 3b 1d 3a 56 3e
       0.25255552 -0.1443373 0.0073565133 0.20920606
000300 13 d7 f1 bd 76 a4 4f 3c 51 27 88 3d 8c 74 4e be
       -0.118086 0.012673488 0.06648124 -0.20161647
000310 de 91 a3 bc e8 3c 01 be 82 e7 2b be 3f 22 82 bd
       -0.019967016 -0.1262089 -0.16787532 -0.06354188
000320 77 00 98 bd 4b 92 4e be 99 a3 0b be 36 e8 a4 bd
       -0.07421964 -0.20172994 -0.13636626 -0.08052103
000330 aa 71 cc 3d aa d5 79 be 21 5b 1a 3d 73 7a b9 3d
       0.09982617 -0.24397913 0.037684564 0.090565585
000340 cb bb 72 3c a7 aa 07 bc 17 1a 9f bd bf a6 da 3d
       0.014815281 -0.008280433 -0.07768648 0.106763355
000350 ad df 2b 3e 5a 1b 67 bd d1 13 d4 bc 92 82 2b be
       0.16784544 -0.05642257 -0.025888355 -0.16749027
000360 58 46 2b 3e e7 84 66 3e f0 31 44 3e 05 32 1a 3e
       0.16726053 0.22511636 0.19159675 0.15058143
000370 8b 32 d0 bd 0e 9d 09 3e f6 cb 47 3e b5 f4 b9 3d
       -0.1016589 0.13438818 0.19511399 0.09079877
000380 93 cb 0a be 5e 43 34 3e 40 5c e4 3d 1d b6 de 3d
       -0.1355422 0.17603824 0.11150408 0.10874579
000390 33 c1 28 3e 2b fb 88 3e 8d 96 0d be be f1 a5 3e
       0.1647995 0.26754126 -0.13826962 0.32410997
0003a0 1b 6f bf 3d a1 a3 ae bd 38 67 03 be 27 3b 51 3d
       0.093473636 -0.085273035 -0.12832344 0.051081803
0003b0 b8 94 d4 bd b9 af 88 3d a9 55 ab 3d c4 62 9e 3d
       -0.10379928 0.066741414 0.08365948 0.07733682
0003c0 71 c3 f0 3b 28 57 9c 3d e1 51 0e be 7d e6 49 bd
       0.007347517 0.07633811 -0.13898422 -0.049292076
0003d0 1f da d9 3a 14 cb fb bd 96 bc 4d bd 02 66 28 be
       0.0016620791 -0.122945935 -0.050228678 -0.16445163
0003e0 7a a7 b7 bc 33 32 12 bd c6 0b 80 bd f2 21 ae 3c
       -0.022418726 -0.035692405 -0.062522456 0.02125642
0003f0 e8 3a 96 be 72 3d de bd 63 5c 2b 3e 03 03 95 bd
       -0.29341817 -0.108515635 0.16734461 -0.07275965

conv2.conv3.0.bias f4 [16]
000000 be 5b a9 3d 68 5a 2d bd 2c 4d c3 bc b6 8f 49 bd
       0.082694516 -0.042322546 -0.02384051 -0.04920932
000010 a0 c0 07 bd 62 b0 60 bd f0 44 88 3a 4e 87 53 bd
       -0.033142686 -0.05485571 0.0010396522 -0.05164271
000020 07 6d 6d 3d fa f5 30 3d 60 0c 64 bd 69 69 3d 3d
       0.057965305 0.04320333 -0.055675864 0.046243105
000030 b1 45 82 bd 5c f4 da bc aa 03 98 3d e7 ef 2e bd
       -0.06360949 -0.026727848 0.07422574 -0.042709257

conv2.conv3.1.weight f4 [16]
000000 07 ba 53 3f a6 e4 a2 3f 21 59 8c 3f 98 1c 87 3f
       0.8270573 1.2726028 1.09647 1.0555601
000010 83 19 93 3f 6d d9 96 3f 65 01 5e 3f 7d e2 57 3f
       1.149216 1.1785103 0.8672088 0.8432997
000020 39 68 99 3f b3 2b 3d 3f 56 19 6e 3f 31 4a 82 3f
       1.1984931 0.73894805 0.9300741 1.0178891
000030 d5 7f 81 3f 5f 0d 5d 3f 0e bd 9a 3f 7b 72 8e 3f
       1.0117136 0.8634853 1.2088945 1.1128687

conv2.conv3.1.bias f4 [16]
000000 43 db ac bd be 38 3d 3e 96 82 49 be f9 61 a1 bd
       -0.08440258 0.18478677 -0.19678721 -0.07880015
000010 97 5b 92 3e c2 3c 27 3e 7a b3 eb 3a dc af 99 be
       0.28585503 0.16331771 0.0017982565 -0.30016983
000020 40 9c 9b 3e c3 de 8d bd 3b a6 ee bd 26 f2 74 bd
       0.30392647 -0.06927254 -0.116528 -0.059801243
000030 cc d4 5d 3e ad c9 98 bd a0 59 a9 bd 1e 30 ae 3e
       0.21663207 -0.074603416 -0.08269048 0.34021086

conv2.conv3.1.running_mean f4 [16]
000000 1e dc 8e 3e 2c c0 c0 bf 7d a0 89 bf 84 4d d2 bf
       0.2790231 -1.5058646 -1.0752102 -1.6429906
000010 0e d6 9b bf 41 69 be bf ec d2 e6 bf 4a 53 9d be
       -1.2174699 -1.4875871 -1.8033118 -0.30727607
000020 98 14 ab bf 77 cd be bf e6 1b 60 3e 26 ee 19 bf
       -1.336566 -1.4906453 0.21885642 -0.6012901
000030 c6 84 36 be 49 37 c1 bf d1 71 ca bf f2 68 46 bf
       -0.17824087 -1.5094997 -1.5815984 -0.77503884

conv2.conv3.1.running_var f4 [16]
000000 13 2d ca 40 ad a5 e1 40 02 8c 85 40 6b dd 5a 40
       6.318002 7.051474 4.173341 3.4197643
000010 b3 5b 4c 40 ec bc a1 40 5f 3c 5f 40 75 b1 1b 40
       3.1930969 5.0543118 3.4880598 2.432706
000020 1b cb 85 40 39 a2 5b 40 45 24 83 40 ba a2 c0 40
       4.181043 3.4317763 4.0981774 6.019864
000030 87 f5 73 40 86 5f 6b 40 88 a4 c0 40 16 16 b6 40
       3.8118608 3.6777053 6.0200844 5.690196
